…
   "source": [
    "model.compile(loss='categorical_crossentropy',optimizer='adam',metrics=['accuracy'])"
   ]
  },
  {
   "cell_type": "code",
   "execution_count": 16,
   "id": "c6d4656e",
   "metadata": {},
   "outputs": [
    {
     "name": "stdout",
     "output_type": "stream",
     "text": [
      "Model: \"sequential\"\n",
      "_________________________________________________________________\n",
      " Layer (type)                Output Shape              Param #   \n",
      "=================================================================\n",
      " conv2d (Conv2D)             (None, 126, 126, 32)      896       \n",
      "                                                                 \n",
      " max_pooling2d (MaxPooling2D  (None, 63, 63, 32)       0         \n",
      " )                                                               \n",
      "                                                                 \n",
      " flatten (Flatten)           (None, 127008)            0         \n",
      "                                                                 \n",
      " dense (Dense)               (None, 9)                 1143081   \n",
      "                                                                 \n",
      " dense_1 (Dense)             (None, 300)               3000      \n",
      "                                                                 \n",
      " dense_2 (Dense)             (None, 150)               45150     \n",
      "                                                                 \n",
      " dense_3 (Dense)             (None, 75)                11325     \n",
      "                                                                 \n",
      " dense_4 (Dense)             (None, 300)               22800     \n",
      "                                                                 \n",
      " dense_5 (Dense)             (None, 150)               45150     \n",
      "                                                                 \n",
      " dense_6 (Dense)             (None, 75)                11325     \n",
      "                                                                 \n",
      " dense_7 (Dense)             (None, 9)                 684       \n",
      "                                                                 \n",
      "=================================================================\n",
      "Total params: 1,283,411\n",
      "Trainable params: 1,283,411\n",
      "Non-trainable params: 0\n",
      "_________________________________________________________________\n"
     ]
    }
   ],
   "source": [
    "model.summary()"
…
